data.pth (torch, 6999 bytes, 6 tensors)

l1.weight f4 [8, 94]
0.25400415 -0.11110045 -0.01905487 0.62026876 -0.2546103 -0.4204933 -0.4593597 -0.75779146
0.23090711 -0.10270319 0.025892096 -0.04252105 -0.75772715 0.30540052 0.76912564 -0.53691155
-0.16318913 0.43510613 0.44671053 0.37957227 0.3434693 -0.7438553 0.9580662 0.14363368
-0.68455166 0.26085207 0.27293327 1.1464437 0.89112747 0.088218525 -0.68176955 0.70247346
-0.6628876 -0.66886574 -0.25305694 -0.20962304 -0.22305055 -0.17380314 0.3371972 -0.46808648
-0.4626047 0.17044054 -0.19361198 0.8284827 0.6129857 0.5604902 0.57061243 -0.06574095
-0.05177131 -0.17880987 -0.18221702 -0.35712352 -0.22540826 0.5096058 -0.6157713 -0.4360928
-0.40285248 -0.04643751 -0.14419672 0.3699581 -0.24226323 1.0964141 0.30144253 -0.32386044
0.6486769 0.30357546 0.47647324 1.037304 0.24712451 -0.06514211 -0.033625968 0.5809441
0.35426733 -0.051628623 0.69249666 1.0015684 0.46308124 0.023072794 -0.75805134 -0.7599284
-0.409899 0.8602819 0.52595925 -0.17991287 0.57622445 0.43896672 0.581001 -0.007963955
-0.12109878 -0.13416979 0.013370463 -0.15611455 -0.7500666 0.101421565 -0.2339318 -0.22049037
0.24982148 0.5308275 -0.043495703 -0.10675978 -0.42916623 0.36506554 -0.022821246 -0.022745527
0.06650988 -0.056625143 -0.78173393 0.32149774 0.5405371 0.101985745 -0.18825503 0.882324
0.523845 0.35134542 0.51945627 0.3955685 0.8627404 0.59295213 0.46919248 0.039352097
-0.002572651 0.7325616 0.75199586 -0.041491833 -0.020311039 -0.15342888 -0.14520147 -0.15374452
0.20383573 -0.14517519 0.256732 -0.114593476 0.503645 0.3151163 0.3325987 0.03186655
-0.15153867 0.7339857 0.6069337 -0.18648504 0.6190072 0.00088263303 -0.044086967 -0.12616017
-0.27393523 0.22749989 -0.14391246 -0.33715704 -0.6960467 0.13241741 0.0104759205 -0.032804184
-0.14566287 0.3565216 0.30438825 0.69202 0.81608206 0.18355605 0.5043604 0.4435608
0.23204798 0.70412844 0.15465023 -0.09695345 -0.083672605 0.33589423 0.7891924 -0.027746042
-0.16599627 -0.62476814 -0.15610477 -0.010775227 -0.8039149 -0.79988855 -0.078726806 -0.38944831
0.5727907 -0.36278448 0.56084883 -0.21290182 0.20121007 -0.09452965 -0.14900021 -0.15851766
0.29918998 -0.14467648 0.32124987 0.0018152916 -0.30060196 -0.09977477 0.25941768 0.6700604
0.5116744 0.38366914 -0.7467173 0.70459056 -0.34778202 0.029891228 -0.03245661 0.018712314
-0.88316256 0.28453016 0.7369733 0.060400616 -0.046238884 0.9732224 0.7199999 0.39385945
0.5195945 0.8245266 -0.7843578 0.55800325 0.7241423 -0.34753573 -0.40993097 -0.66278076
-0.8527506 -0.014726445 0.6328836 0.067970134 0.70618904 0.7443849 0.44088924 -0.30498528
0.72779363 -0.2731771 0.53279066 0.561473 0.62468183 -0.12635063 -0.1449757 1.0002077
0.65053815 0.015932497 0.56557494 -0.014282035 0.030482218 -0.2671787 0.038459193 0.62970406
-0.0405366 -0.43159756 -0.61025697 0.61942196 0.10636917 -0.09618202 0.093467884 0.52871203
0.4678689 -0.6732588 0.9764412 0.52883554 0.591524 0.35757092 0.43943912 -0.6203688
00000000: d50c 823e a288 e3bd f518 9cbc efc9 1e3f
00000010: 485c 82be e64a d7be 3231 ebbe 9ffe 41bf
00000020: ea72 6c3e 0d56 d2bd a91b d43c 8d2a 2ebd
00000030: 68fa 41bf 755d 9c3e 6be5 443f 0973 09bf
00000040: 0d1b 27be 3bc6 de3e 3eb7 e43e 4c57 c23e
00000050: 35db af3e 4d6d 3ebf d443 753f b514 133e
00000060: c73e 2fbf 678e 853e e9bd 8b3e abbe 923f
00000070: ee20 643f eaab b43d 7388 2ebf 4dd5 333f
00000080: 00b3 29bf c93a 2bbf ae90 81be 6ca7 56be
00000090: 5d67 64be 73f9 31be 1da5 ac3e 08a9 efbe
000000a0: 86da ecbe f787 2e3e 3842 46be 7117 543f
000000b0: a1ec 1c3f 497c 0f3f a813 123f 31a3 86bd
000000c0: 270e 54bd ef19 37be 1997 3abe e5d8 b6be
000000d0: 6cd1 66be 8775 023f 30a3 1dbf 8e47 dfbe
000000e0: ae42 cebe 4235 3ebd 4ea8 13be 266b bd3e
000000f0: da13 78be 4c57 8c3f ad56 9a3e 09d1 a5be
00000100: b00f 263f 3e6e 9b3e 4df4 f33e 61c6 843f
00000110: 350e 7d3e 3a69 85bd 62bb 09bd c1b8 143f
00000120: 8762 b53e 8978 53bd 7647 313f 6533 803f
00000130: fc18 ed3e 2803 bd3c a70f 42bf ab8a 42bf
00000140: 48de d1be 6f3b 5c3f 44a5 063f 143b 38be
00000150: 7283 133f 3fc0 e03e 7bbc 143f 407b 02bc
00000160: a302 f8bd ce63 09be c90f 5b3c 7edc 1fbe
00000170: 5d04 40bf 1cb6 cf3d d18b 6fbe 3ac8 61be
00000180: 34d1 7f3e 50e4 073f 8d28 32bd dfa4 dabd
00000190: adbb dbbe dfe9 ba3e 9ff3 babc d454 babc
000001a0: 5536 883d c4ef 67bd b71f 48bf 5a9b a43e
000001b0: a460 0a3f e7dd d03d edc5 40be fcdf 613f
000001c0: b51a 063f 8ce3 b33e 16fb 043f f487 ca3e
000001d0: 8edc 5c3f b6cb 173f ff39 f03e aa2f 213d
000001e0: ec99 28bb 2889 3b3f cd82 403f 57f3 29bd
000001f0: 5663 a6bc 761c 1dbe b2af 14be 346f 1dbe
00000200: 50ba 503e cea8 14be 6072 833e fcaf eabd
00000210: e1ee 003f ec56 a13e 604a aa3e 8086 023d
00000220: f42c 1bbe 7de6 3b3f 0260 1b3f eff5 3ebe
00000230: 4177 1e3f 8060 673a 8994 34bd 2230 01be
00000240: 3d41 8cbe bbf5 683e ca5d 13be d99f acbe
00000250: 1e30 32bf 6e98 073e 32a3 2b3c ae5d 06bd
00000260: a628 15be 008a b63e c7d8 9b3e 3928 313f
00000270: c1ea 503f 1ef6 3b3e c31d 013f 671a e33e
00000280: fc9d 6d3e c341 343f a15c 1e3e 888f c6bd
00000290: 8b5c abbd 54fa ab3e 8308 4a3f ab4b e3bc
000002a0: edfa 29be cef0 1fbf eed9 1fbe 948a 30bc
000002b0: 5ecd 4dbf 7fc5 4cbf 853b a1bd c565 c7be
000002c0: 69a2 123f e3be b9be ca93 0f3f ef02 5abe
000002d0: 030a 4e3e c398 c1bd 8393 18be 7452 22be
000002e0: 6e2f 993e 1226 14be dd7a a43e 14ef ed3a
000002f0: 80e8 99be b756 ccbd 65d2 843e 1489 2b3f
00000300: 18fd 023f 4870 c43e dd28 3fbf 0c60 343f
00000310: 7c10 b2be 73de f43c 39f1 04bd 914a 993c
00000320: f116 62bf f0ad 913e 48aa 3c3f a366 773d
00000330: fc64 3dbd 1a25 793f ea51 383f f2a7 c93e
00000340: 2504 053f 2d14 533f accb 48bf 4dd9 0e3f
00000350: 6461 393f 34f0 b1be 79e2 d1be 00ac 29bf
00000360: dd4d 5abf 3047 71bc a904 223f ed33 8b3d
00000370: cec8 343f 0290 3e3f 3cbc e13e 0827 9cbe
00000380: af50 3a3f dedd 8bbe f864 083f b2bc 0f3f
00000390: 26eb 1f3f 0f62 01be 8374 14be ce06 803f
000003a0: ab89 263f de84 823c 85c9 103f 32ff 69bc
000003b0: d8b5 f93c a6cb 88be 6387 1d3d 4934 213f
000003c0: b509 26bd 5bfa dcbe cd39 1cbf 7092 1e3f
000003d0: 14d8 d93d 14fb c4bd 176c bf3d ac59 073f
000003e0: 838c ef3e b05a 2cbf 0df8 793f c461 073f
000003f0: 1e6e 173f 8913 b73e 2afe e03e 7dd0 1ebf

l1.bias f4 [8]
0.759916 0.80731064 0.88312644 1.5633246 0.75924647 1.076046 0.68030375 0.7122904
00000000: db89 423f e9ab 4e3f 9314 623f 051b c83f
00000010: fa5d 423f e0bb 893f 6328 2e3f aa58 363f

l2.weight f4 [8, 8]
0.21933213 -0.3105461 -0.047448635 -0.099228024 0.026238143 -0.15654996 -0.34049398 -0.046135932
-1.6034105 -0.49175572 0.65792096 1.5617043 -0.5321392 1.6755114 2.2474225 -0.18308504
1.6455674 1.9726266 1.3422853 0.60227937 2.5113797 -1.0751727 -0.98570955 1.982685
-2.1451797 0.24240062 1.0522777 1.7847726 1.9593431 1.0812911 -0.8174074 -0.56569195
2.423996 0.22508013 -0.25694713 0.495435 -1.6192617 2.0115674 0.95939946 -0.8730153
0.24564667 0.53471655 1.3039052 -0.8598299 -0.5344992 1.4797823 2.0421088 1.2651492
1.6728168 2.0701756 1.8595432 1.1926957 -1.0506182 1.0604297 -0.63398314 1.8898745
-0.23662686 -0.17999743 0.049815923 -0.2812446 0.023111314 0.15616831 -0.18588947 0.11500391
00000000: 9a98 603e e6ff 9ebe 8059 42bd 1038 cbbd
00000010: 60f1 d63c a24e 20be 3a55 aebe 08f9 3cbd
00000020: 8e3c cdbf 68c7 fbbe 826d 283f ede5 c73f
00000030: 463a 08bf 2877 d63f c5d5 0f40 a57a 3bbe
00000040: f4a1 d23f 077f fc3f 01d0 ab3f fb2e 1a3f
00000050: 72ba 2040 429f 89bf 7657 7cbf 9fc8 fd3f
00000060: a04a 09c0 de37 783e 09b1 863f 6e73 e43f
00000070: c1cb fa3f bf67 8a3f 9d41 51bf 30d1 10bf
00000080: c022 1b40 687b 663e 938e 83be a8a9 fd3e
00000090: f843 cfbf 85bd 0040 349b 753f ee7d 5fbf
000000a0: cd8a 7b3e 2fe3 083f 5ee6 a63f d01d 5cbf
000000b0: f1d4 08bf 8269 bd3f e9b1 0240 69f0 a13f
000000c0: dc1e d63f c27d 0440 8305 ee3f 41aa 983f
000000d0: a87a 86bf 29bc 873f b84c 22bf 68e7 f13f
000000e0: 504e 72be 3f51 38be c80b 4c3d 4bff 8fbe
000000f0: f053 bd3c 96ea 1f3e cf59 3ebe 2c87 eb3d

l2.bias f4 [8]
-0.19426848 0.40137017 -0.15100631 1.0772566 0.4588384 -0.7174154 -0.2506294 -0.15157515
00000000: 51ee 46be 6480 cd3e 66a1 1abe 8be3 893f
00000010: deec ea3e 89a8 37bf 7f52 80be 8436 1bbe

l3.weight f4 [13, 8]
-0.12645462 0.48984692 -1.0077182 -0.0397905 0.48001292 0.045318898 -2.001317 0.29534075
-0.09775084 0.124702886 -0.50841314 1.0518475 -0.3418387 -1.3426057 -1.6146266 0.03312704
-0.083624244 0.46141326 -0.293909 -1.6078149 -0.13143027 0.40496138 -0.8071362 0.22604945
0.22340152 0.5134805 -1.64289 -1.525781 0.4084787 0.56544894 -2.0833595 -0.2594993
-0.1139019 -0.34355974 -0.048915677 0.44782332 -1.6539587 -0.122802146 0.1909958 0.24606594
-0.18876612 -0.40691444 -0.15926848 0.23375903 0.44192988 -2.6203716 0.3181006 -0.34526524
-0.15605389 0.2631523 -1.5304929 0.23818554 -0.12681006 -0.11387512 0.10198779 0.3366802
-0.09024942 -3.4749947 0.3886777 -0.64952683 0.5523561 -0.3653275 0.50930667 -0.007934958
-0.2981309 -2.2530932 0.74778336 0.86910236 -1.6026092 -1.8639162 -0.4359661 0.104671985
0.17381129 -1.2427585 -0.26220772 -0.44821015 0.120501764 0.7897196 0.21217124 -0.02229479
0.27406183 -2.37447 0.71745497 -0.019026313 -1.6041254 -0.7271501 0.6479141 0.14769575
0.16321614 -0.18081519 -1.8054794 -1.1511441 0.8125739 0.4564201 -0.27233756 0.036984235
-0.19695391 0.67249095 -2.3677604 0.7380004 0.26467413 -2.6335275 -0.07822747 -0.03540197
00000000: 527d 01be 37cd fa3e e9fc 80bf 5dfb 22bd
00000010: 41c4 f53e 4fa0 393d 9415 00c0 e736 973e
00000020: 9831 c8bd 3a64 ff3d 5d27 02bf f0a2 863f
00000030: 7b05 afbe 81da abbf 16ac cebf 38b0 073d
00000040: 3043 abbd 5c3e ec3e 3e7b 96be e1cc cdbf
00000050: a895 06be 1957 cf3e 7aa0 4ebf 8279 673e
00000060: 5ec3 643e 7573 033f 384a d2bf cb4c c3bf
00000070: 1f24 d13e 43c1 103f c355 05c0 18dd 84be
00000080: 6645 e9bd 10e7 afbe ce5b 48bd 1949 e53e
00000090: ebb4 d3bf b17f fbbd 6794 433e b6f8 7b3e
000000a0: e84b 41be 1757 d0be 4717 23be 875e 6f3e
000000b0: a244 e23e 2bb4 27c0 15de a23e 9bc6 b0be
000000c0: 97cc 1fbe e6bb 863e 31e7 c3bf e9e6 733e
000000d0: 7fda 01be 5c37 e9bd f9de d03d 5961 ac3e
000000e0: b0d4 b8bd 5066 5ec0 c300 c73e 6447 26bf
000000f0: 3667 0d3f 350c bbbe ec61 023f a001 02bc
00000100: 9da4 98be ae32 10c0 bb6e 3f3f 7e7d 5e3f
00000110: 4c22 cdbf ce94 eebf f336 dfbe 445e d63d
00000120: 96fb 313e b612 9fbf 1740 86be cd7b e5be
00000130: a1c9 f63d 102b 4a3f 6b43 593e 90a3 b6bc
00000140: d551 8c3e 51f7 17c0 21ab 373f 12dd 9bbc
00000150: fb53 cdbf 8226 3abf b3dd 253f 8e3d 173e
00000160: 2222 273e 9e27 39be f319 e7bf b158 93bf
00000170: d804 503f e5af e93e d46f 8bbe c87c 173d
00000180: 49ae 49be 5e28 2c3f 6389 17c0 98ed 3c3f
00000190: 5e83 873e b78b 28c0 b935 a0bd a801 11bd

l3.bias f4 [13]
-0.2965936 0.70355415 0.29485893 0.26337287 -0.4980003 0.24791805 -0.7989096 -0.09328113
0.69209695 -0.40940762 -0.6530595 -0.434727 0.65237975
00000000: 1edb 97be 201c 343f c0f7 963e cfd8 863e
00000010: e5f9 febe 3bde 7d3e 5785 4cbf 2d0a bfbd
00000020: 442d 313f e09d d1be e82e 27bf 8a94 debe
00000030: 5c02 273f
